…
Contructed CSV Mammo Risk Survival test dataset with 1380 records, 1380 exams, 384 patients, and the following class balance 
 Counter({False: 1362, True: 18})
Censor Times: Counter({4: 859, 3: 178, 2: 171, 1: 170, 0: 2})
Label weights are {False: 0.0003671071953010279, True: 0.027777777777777776}

Loading model from [/gpfs/data/huo-lab/Image/ojomoleye/projects/mirai_validation/snapshots/mgh_mammo_MIRAI_Base_May20_2019.p]...

Loading model from [/gpfs/data/huo-lab/Image/ojomoleye/projects/mirai_validation/snapshots/mgh_mammo_cancer_MIRAI_Transformer_Jan13_2020.p]...
MiraiFull(
  (image_encoder): CustomResnet(
    (_model): ResNet(
      (downsampler): Downsampler(
        (conv1): Conv2d(3, 64, kernel_size=(7, 7), stride=(2, 2), padding=(3, 3), bias=False)
        (bn1): BatchNorm2d(64, eps=1e-05, momentum=0.1, affine=True, track_running_stats=True)
        (relu): ReLU(inplace=True)
        (maxpool): MaxPool2d(kernel_size=3, stride=2, padding=1, dilation=1, ceil_mode=False)
      )
      (layer1_0): BasicBlock(
        (conv1): Conv2d(64, 64, kernel_size=(3, 3), stride=(1, 1), padding=(1, 1), bias=False)
        (relu): ReLU(inplace=True)
        (conv2): Conv2d(64, 64, kernel_size=(3, 3), stride=(1, 1), padding=(1, 1), bias=False)
        (bn1): BatchNorm2d(64, eps=1e-05, momentum=0.1, affine=True, track_running_stats=True)
        (bn2): BatchNorm2d(64, eps=1e-05, momentum=0.1, affine=True, track_running_stats=True)
      )
      (layer1_1): BasicBlock(
        (conv1): Conv2d(64, 64, kernel_size=(3, 3), stride=(1, 1), padding=(1, 1), bias=False)
        (relu): ReLU(inplace=True)
        (conv2): Conv2d(64, 64, kernel_size=(3, 3), stride=(1, 1), padding=(1, 1), bias=False)
        (bn1): BatchNorm2d(64, eps=1e-05, momentum=0.1, affine=True, track_running_stats=True)
        (bn2): BatchNorm2d(64, eps=1e-05, momentum=0.1, affine=True, track_running_stats=True)
      )
      (layer2_0): BasicBlock(
        (conv1): Conv2d(64, 128, kernel_size=(3, 3), stride=(2, 2), padding=(1, 1), bias=False)
        (relu): ReLU(inplace=True)
        (conv2): Conv2d(128, 128, kernel_size=(3, 3), stride=(1, 1), padding=(1, 1), bias=False)
        (bn1): BatchNorm2d(128, eps=1e-05, momentum=0.1, affine=True, track_running_stats=True)
        (bn2): BatchNorm2d(128, eps=1e-05, momentum=0.1, affine=True, track_running_stats=True)
        (downsample): Sequential(
          (0): Conv2d(64, 128, kernel_size=(1, 1), stride=(2, 2), bias=False)
          (1): BatchNorm2d(128, eps=1e-05, momentum=0.1, affine=True, track_running_stats=True)
        )
      )
      (layer2_1): BasicBlock(
        (conv1): Conv2d(128, 128, kernel_size=(3, 3), stride=(1, 1), padding=(1, 1), bias=False)
        (relu): ReLU(inplace=True)
        (conv2): Conv2d(128, 128, kernel_size=(3, 3), stride=(1, 1), padding=(1, 1), bias=False)
        (bn1): BatchNorm2d(128, eps=1e-05, momentum=0.1, affine=True, track_running_stats=True)
        (bn2): BatchNorm2d(128, eps=1e-05, momentum=0.1, affine=True, track_running_stats=True)
      )
      (layer3_0): BasicBlock(
        (conv1): Conv2d(128, 256, kernel_size=(3, 3), stride=(2, 2), padding=(1, 1), bias=False)
        (relu): ReLU(inplace=True)
        (conv2): Conv2d(256, 256, kernel_size=(3, 3), stride=(1, 1), padding=(1, 1), bias=False)
        (bn1): BatchNorm2d(256, eps=1e-05, momentum=0.1, affine=True, track_running_stats=True)
        (bn2): BatchNorm2d(256, eps=1e-05, momentum=0.1, affine=True, track_running_stats=True)
        (downsample): Sequential(
          (0): Conv2d(128, 256, kernel_size=(1, 1), stride=(2, 2), bias=False)
          (1): BatchNorm2d(256, eps=1e-05, momentum=0.1, affine=True, track_running_stats=True)
        )
      )
      (layer3_1): BasicBlock(
        (conv1): Conv2d(256, 256, kernel_size=(3, 3), stride=(1, 1), padding=(1, 1), bias=False)
        (relu): ReLU(inplace=True)
        (conv2): Conv2d(256, 256, kernel_size=(3, 3), stride=(1, 1), padding=(1, 1), bias=False)
        (bn1): BatchNorm2d(256, eps=1e-05, momentum=0.1, affine=True, track_running_stats=True)
        (bn2): BatchNorm2d(256, eps=1e-05, momentum=0.1, affine=True, track_running_stats=True)
      )
      (layer4_0): BasicBlock(
        (conv1): Conv2d(256, 512, kernel_size=(3, 3), stride=(2, 2), padding=(1, 1), bias=False)
        (relu): ReLU(inplace=True)
        (conv2): Conv2d(512, 512, kernel_size=(3, 3), stride=(1, 1), padding=(1, 1), bias=False)
        (bn1): BatchNorm2d(512, eps=1e-05, momentum=0.1, affine=True, track_running_stats=True)
        (bn2): BatchNorm2d(512, eps=1e-05, momentum=0.1, affine=True, track_running_stats=True)
        (downsample): Sequential(
          (0): Conv2d(256, 512, kernel_size=(1, 1), stride=(2, 2), bias=False)
          (1): BatchNorm2d(512, eps=1e-05, momentum=0.1, affine=True, track_running_stats=True)
        )
      )
      (layer4_1): BasicBlock(
        (conv1): Conv2d(512, 512, kernel_size=(3, 3), stride=(1, 1), padding=(1, 1), bias=False)
        (relu): ReLU(inplace=True)
        (conv2): Conv2d(512, 512, kernel_size=(3, 3), stride=(1, 1), padding=(1, 1), bias=False)
        (bn1): BatchNorm2d(512, eps=1e-05, momentum=0.1, affine=True, track_running_stats=True)
        (bn2): BatchNorm2d(512, eps=1e-05, momentum=0.1, affine=True, track_running_stats=True)
      )
      (pool): RiskFactorPool(
        (internal_pool): GlobalMaxPool()
        (dropout): Dropout(p=0.0, inplace=False)
        (density_fc): Linear(in_features=512, out_features=4, bias=True)
        (binary_family_history_fc): Linear(in_features=512, out_features=1, bias=True)
        (binary_biopsy_benign_fc): Linear(in_features=512, out_features=1, bias=True)
        (binary_biopsy_LCIS_fc): Linear(in_features=512, out_features=1, bias=True)
        (binary_biopsy_atypical_hyperplasia_fc): Linear(in_features=512, out_features=1, bias=True)
        (age_fc): Linear(in_features=512, out_features=6, bias=True)
        (menarche_age_fc): Linear(in_features=512, out_features=5, bias=True)
        (menopause_age_fc): Linear(in_features=512, out_features=5, bias=True)
        (first_pregnancy_age_fc): Linear(in_features=512, out_features=6, bias=True)
        (prior_hist_fc): Linear(in_features=512, out_features=1, bias=True)
        (race_fc): Linear(in_features=512, out_features=13, bias=True)
        (parous_fc): Linear(in_features=512, out_features=1, bias=True)
        (menopausal_status_fc): Linear(in_features=512, out_features=4, bias=True)
        (weight_fc): Linear(in_features=512, out_features=7, bias=True)
        (height_fc): Linear(in_features=512, out_features=7, bias=True)
        (ovarian_cancer_fc): Linear(in_features=512, out_features=1, bias=True)
        (ovarian_cancer_age_fc): Linear(in_features=512, out_features=6, bias=True)
        (ashkenazi_fc): Linear(in_features=512, out_features=1, bias=True)
        (brca_fc): Linear(in_features=512, out_features=4, bias=True)
        (mom_bc_cancer_history_fc): Linear(in_features=512, out_features=1, bias=True)
        (m_aunt_bc_cancer_history_fc): Linear(in_features=512, out_features=1, bias=True)
        (p_aunt_bc_cancer_history_fc): Linear(in_features=512, out_features=1, bias=True)
        (m_grandmother_bc_cancer_history_fc): Linear(in_features=512, out_features=1, bias=True)
        (p_grantmother_bc_cancer_history_fc): Linear(in_features=512, out_features=1, bias=True)
        (sister_bc_cancer_history_fc): Linear(in_features=512, out_features=1, bias=True)
        (mom_oc_cancer_history_fc): Linear(in_features=512, out_features=1, bias=True)
        (m_aunt_oc_cancer_history_fc): Linear(in_features=512, out_features=1, bias=True)
        (p_aunt_oc_cancer_history_fc): Linear(in_features=512, out_features=1, bias=True)
        (m_grandmother_oc_cancer_history_fc): Linear(in_features=512, out_features=1, bias=True)
        (p_grantmother_oc_cancer_history_fc): Linear(in_features=512, out_features=1, bias=True)
        (sister_oc_cancer_history_fc): Linear(in_features=512, out_features=1, bias=True)
        (hrt_type_fc): Linear(in_features=512, out_features=3, bias=True)
        (hrt_duration_fc): Linear(in_features=512, out_features=5, bias=True)
        (hrt_years_ago_stopped_fc): Linear(in_features=512, out_features=5, bias=True)
      )
      (relu): ReLU(inplace=True)
      (dropout): Dropout(p=0.0, inplace=False)
      (fc): Linear(in_features=612, out_features=2, bias=True)
      (prob_of_failure_layer): Cumulative_Probability_Layer(
        (hazard_fc): Linear(in_features=612, out_features=5, bias=True)
        (base_hazard_fc): Linear(in_features=612, out_features=1, bias=True)
        (relu): ReLU(inplace=True)
      )
    )
  )
  (transformer): AllImageTransformer(
    (projection_layer): Linear(in_features=512, out_features=512, bias=True)
    (mask_embedding): Embedding(2, 512, padding_idx=1)
    (transformer): Transformer(
      (time_embed): Embedding(11, 32, padding_idx=10)
      (view_embed): Embedding(3, 32, padding_idx=2)
      (side_embed): Embedding(3, 32, padding_idx=2)
      (embed_add_fc): Linear(in_features=96, out_features=512, bias=True)
      (embed_scale_fc): Linear(in_features=96, out_features=512, bias=True)
      (transformer_layer_0): TransformerLayer(
        (multihead_attention): MultiHead_Attention(
          (query): Linear(in_features=512, out_features=512, bias=True)
          (value): Linear(in_features=512, out_features=512, bias=True)
          (key): Linear(in_features=512, out_features=512, bias=True)
          (dropout): Dropout(p=0.25, inplace=False)
          (aggregate_fc): Linear(in_features=512, out_features=512, bias=True)
        )
        (layernorm_attn): LayerNorm(torch.Size([512]), eps=1e-05, elementwise_affine=True)
        (fc1): Linear(in_features=512, out_features=512, bias=True)
        (relu): ReLU()
        (fc2): Linear(in_features=512, out_features=512, bias=True)
        (layernorm_fc): LayerNorm(torch.Size([512]), eps=1e-05, elementwise_affine=True)
      )
    )
    (pred_masked_img_fc): Linear(in_features=512, out_features=512, bias=True)
    (pool): RiskFactorPool(
      (internal_pool): Simple_AttentionPool(
        (attention_fc): Linear(in_features=512, out_features=1, bias=True)
        (softmax): Softmax(dim=-1)
      )
      (dropout): Dropout(p=0.25, inplace=False)
      (density_fc): Linear(in_features=512, out_features=4, bias=True)
      (binary_family_history_fc): Linear(in_features=512, out_features=1, bias=True)
      (binary_biopsy_benign_fc): Linear(in_features=512, out_features=1, bias=True)
      (binary_biopsy_LCIS_fc): Linear(in_features=512, out_features=1, bias=True)
      (binary_biopsy_atypical_hyperplasia_fc): Linear(in_features=512, out_features=1, bias=True)
      (age_fc): Linear(in_features=512, out_features=6, bias=True)
      (menarche_age_fc): Linear(in_features=512, out_features=5, bias=True)
      (menopause_age_fc): Linear(in_features=512, out_features=5, bias=True)
      (first_pregnancy_age_fc): Linear(in_features=512, out_features=6, bias=True)
      (prior_hist_fc): Linear(in_features=512, out_features=1, bias=True)
      (race_fc): Linear(in_features=512, out_features=13, bias=True)
      (parous_fc): Linear(in_features=512, out_features=1, bias=True)
      (menopausal_status_fc): Linear(in_features=512, out_features=4, bias=True)
      (weight_fc): Linear(in_features=512, out_features=7, bias=True)
      (height_fc): Linear(in_features=512, out_features=7, bias=True)
      (ovarian_cancer_fc): Linear(in_features=512, out_features=1, bias=True)
      (ovarian_cancer_age_fc): Linear(in_features=512, out_features=6, bias=True)
      (ashkenazi_fc): Linear(in_features=512, out_features=1, bias=True)
      (brca_fc): Linear(in_features=512, out_features=4, bias=True)
      (mom_bc_cancer_history_fc): Linear(in_features=512, out_features=1, bias=True)
      (m_aunt_bc_cancer_history_fc): Linear(in_features=512, out_features=1, bias=True)
      (p_aunt_bc_cancer_history_fc): Linear(in_features=512, out_features=1, bias=True)
      (m_grandmother_bc_cancer_history_fc): Linear(in_features=512, out_features=1, bias=True)
      (p_grantmother_bc_cancer_history_fc): Linear(in_features=512, out_features=1, bias=True)
      (sister_bc_cancer_history_fc): Linear(in_features=512, out_features=1, bias=True)
      (mom_oc_cancer_history_fc): Linear(in_features=512, out_features=1, bias=True)
      (m_aunt_oc_cancer_history_fc): Linear(in_features=512, out_features=1, bias=True)
      (p_aunt_oc_cancer_history_fc): Linear(in_features=512, out_features=1, bias=True)
      (m_grandmother_oc_cancer_history_fc): Linear(in_features=512, out_features=1, bias=True)
      (p_grantmother_oc_cancer_history_fc): Linear(in_features=512, out_features=1, bias=True)
      (sister_oc_cancer_history_fc): Linear(in_features=512, out_features=1, bias=True)
      (hrt_type_fc): Linear(in_features=512, out_features=3, bias=True)
      (hrt_duration_fc): Linear(in_features=512, out_features=5, bias=True)
      (hrt_years_ago_stopped_fc): Linear(in_features=512, out_features=5, bias=True)
    )
    (relu): ReLU(inplace=True)
    (dropout): Dropout(p=0.25, inplace=False)
    (fc): Linear(in_features=612, out_features=2, bias=True)
    (prob_of_failure_layer): Cumulative_Probability_Layer(
      (hazard_fc): Linear(in_features=612, out_features=5, bias=True)
      (base_hazard_fc): Linear(in_features=612, out_features=1, bias=True)
      (relu): ReLU(inplace=True)
    )
  )
)
Trained model will be saved to [snapshot/f5aa562dcdf36dd5c5ee046d59d801a5_model.pt]

 Restarting run from scratch.

Parameters:
	ADD_REPULSIVE_MMD=False
	ADV_LOSS_LAMBDA=0.5
	ADV_ON_LOGITS_ALONE=False
	ALLOWED_DEVICES=all
	ALSO_PRED_GIVEN_MAMMOS=False
	ANNEAL_ADV_LOSS=False
	BACKGROUND_SIZE=[1024, 1024]
	BATCH_SIZE=1
…
